experiment_kijung/first_experiment/model/exp/last.pth (torch, 400759 bytes, 8 tensors)

conv1.weight f4 [32, 3, 7, 7]
000000 a1 8f 09 3d 12 97 12 3c b0 fc c3 bd ed 95 9f bd
       0.03358424 0.008947151 -0.09569681 -0.07792268
000010 25 06 69 bd 59 9b 4f bd 54 7a cc bd 40 55 57 bd
       -0.056890626 -0.05068526 -0.0998427 -0.052571535
000020 33 4b a6 3c 94 32 02 be cb 59 1f bd d6 90 12 bd
       0.02029953 -0.12714607 -0.038903993 -0.035782658
000030 d4 ab 98 bd 52 90 8a bd de 18 95 bd 3a d0 ed bd
       -0.074546486 -0.06765808 -0.07280134 -0.11611982
000040 ec 3b 00 be a8 45 67 bc 8b a0 7d bd 0e 3e 72 bd
       -0.12522858 -0.014115728 -0.061920684 -0.05914121
000050 45 83 71 bd c6 6b e7 bd d7 bc 77 bd 21 11 06 be
       -0.05896308 -0.11299853 -0.060482826 -0.13092472
000060 1a b0 b3 bc 15 58 c1 bd 90 92 b8 bd d0 7c ce bc
       -0.021934558 -0.094406284 -0.090123296 -0.025206
000070 f8 a7 bd bd 06 9c cc bd 4b 3d cd bd a3 1b a0 bd
       -0.09260553 -0.099906966 -0.10021456 -0.07817771
000080 a5 77 ee bd cc e8 12 be 82 5e a9 bc 3f de 3b 3c
       -0.11643914 -0.14346617 -0.020674948 0.011466562
000090 fb a2 97 bd 8d 12 e1 bd 38 96 81 3b 8c 96 d5 bd
       -0.07404133 -0.109898664 0.003954675 -0.10429105
0000a0 3a 9f ef bd 8f 08 fe bd a4 2f 01 bc da 26 92 bc
       -0.11700292 -0.12403976 -0.007884894 -0.017840791
0000b0 63 40 0a 3d 22 64 97 bd 1c 2e c2 bd 06 8b 09 3d
       0.03375281 -0.07392146 -0.09481451 0.03357985
0000c0 7b 30 21 3c b7 1e 4d bd a2 24 67 bd a1 31 43 3d
       0.009838219 -0.05007812 -0.05643142 0.04765475
0000d0 68 8d a0 bc f7 e5 0c 3d 9d 0e 7f 3c b3 cc 02 bb
       -0.019598678 0.034399 0.015567449 -0.0019958436
0000e0 17 07 c7 3d 96 cb 56 3d 36 a7 43 3d a2 c4 13 bd
       0.09718149 0.05244025 0.047766887 -0.036076196
0000f0 ab 47 a4 bb d6 b2 7a 3d eb e7 8f 3d d1 f9 21 3d
       -0.0050134263 0.061205707 0.07026657 0.039544884
000100 da e4 4d bd f9 a0 92 bc d2 7c d4 3d 2e 6d b3 3d
       -0.050267078 -0.017899023 0.1037537 0.08761059
000110 1d 24 85 3d 6c 9a ae bc d2 67 53 bc 1f 9f 6c 3d
       0.06501029 -0.021313868 -0.012903171 0.057768937
000120 a9 b1 29 bd 92 5a 77 3c af 16 52 3d 33 4e 54 3d
       -0.041429196 0.015097277 0.051291164 0.05183239
000130 73 44 7c 3d 22 3c 0f 3d 5b 39 aa 3d 15 f9 50 bd
       0.061588716 0.034969456 0.08311721 -0.051018793
000140 9e 0a 70 bc 97 4f 50 bb 6c 8d 89 3d 64 9d 32 bd
       -0.014650969 -0.003178572 0.06716427 -0.04360713
000150 3d 90 b8 3d 58 a8 7c bc d7 75 e3 3b 92 f8 bb 3d
       0.09011886 -0.015420996 0.006941538 0.091782704
000160 db 03 da 3d 75 11 48 3d b4 a8 50 3b 6f fc b0 3d
       0.106452666 0.048844773 0.0031838836 0.08641898
000170 9f 84 d6 3c a5 01 a2 3d 93 96 89 3d b6 25 fc 3c
       0.026186286 0.0791047 0.06718173 0.0307797
000180 3d a9 d6 3d e8 54 76 3d 4d b2 c1 3d 59 26 bd 3d
       0.104814984 0.060139567 0.09457836 0.0923583
000190 78 d2 ef 3c ef 79 bf bc ce 84 77 bc b2 90 3c bb
       0.029275164 -0.023373572 -0.015107347 -0.0028772769
0001a0 c4 4b 8c bc 94 7b 0c 3d 6e 50 cf 3d 69 e9 93 3d
       -0.017125972 0.03429754 0.101227626 0.07222254
0001b0 57 3f 23 3d 36 b0 66 3d b2 3a 09 bd c6 a5 33 3d
       0.039855327 0.05632039 -0.03350324 0.043859266
0001c0 d2 a0 cc 3d 78 2c 56 3d b2 a2 bc 3c 08 b1 ab 3d
       0.099916115 0.052288502 0.023026798 0.083833754
0001d0 3f 99 54 bd b2 d7 6c 3d 85 07 5c bb 8d 8b 32 bd
       -0.05190396 0.05782289 -0.0033573818 -0.043590117
0001e0 65 82 96 3d 89 26 0a 3c 76 14 46 3b 63 eb af bc
       0.073490895 0.008432039 0.0030224598 -0.021474546
0001f0 93 58 66 bc 54 3f 92 ba 89 30 45 bd 3d cc 8d 3d
       -0.014059204 -0.0011157789 -0.04814199 0.06923721
000200 18 7e 1d 3d 71 c4 63 3d 7a 4c cb 3d 74 b8 4e bb
       0.03845033 0.055607263 0.09926696 -0.0031543048
000210 dc 5b 1a bd 75 75 af bc 6f 18 ab 3c 25 3d 84 3c
       -0.03768526 -0.021418313 0.020885674 0.016142437
000220 8e 1b 77 3d 3d 22 01 3d c5 8e 40 3d 84 5f e9 bc
       0.060329013 0.031526793 0.047011156 -0.028487928
000230 85 25 22 bd 9f de 0b 3d b1 fc 47 3d eb ad 73 bb
       -0.039586563 0.034147855 0.04882497 -0.003718252
000240 e6 8e 3d 3b 41 55 38 3c d0 3e 69 bd cb 0b 33 3c
       0.0028924285 0.011250795 -0.05694467 0.010928105
000250 82 56 e3 bc 54 b7 23 be 96 3a 46 be f2 89 63 bd
       -0.027751211 -0.15987903 -0.19358286 -0.055551477
000260 26 98 5f bd aa 96 37 be 93 c5 f2 3c d3 b6 54 bd
       -0.05458846 -0.17928568 0.029635226 -0.051932167
000270 8e b2 ab bd 74 a3 e1 bd e0 45 97 bd 63 77 7c bc
       -0.08383666 -0.11017504 -0.073863745 -0.015409323
000280 91 ed 55 bd a2 89 47 bc cb 3f c2 3d 7e e5 d5 3d
       -0.052228514 -0.01217881 0.09484824 0.10444163
000290 fb 12 6a 3d 8c 56 3b 3d 70 15 c4 bd 05 97 d8 bd
       0.057147007 0.045736834 -0.095744014 -0.1057568
0002a0 50 8e 04 3e d1 13 bf 3c d8 0f 48 3d 9b 04 cc 3d
       0.12944913 0.023324879 0.048843235 0.09961816
0002b0 aa 7e 16 3d 18 82 17 bd c8 79 d7 bb ea 6a 82 3d
       0.03674189 -0.0369893 -0.0065757968 0.063680485
0002c0 04 e6 85 3d f4 5c f7 3d 36 b7 16 3d 66 5c cd 3d
       0.065380126 0.12078276 0.036795817 0.10027389
0002d0 4a 25 4a 3d 91 d5 11 3d 9b b5 23 3e d6 65 f7 3d
       0.049351968 0.035604063 0.15987246 0.120799705
0002e0 02 a8 9b 3d 39 a6 a0 3c 7e 0e 11 3d 34 a2 27 bd
       0.07600404 0.019610511 0.03541421 -0.040926173
0002f0 32 01 3b 3d 4a 62 d8 3d 36 c5 95 3d 02 2d c8 3d
       0.045655437 0.10565622 0.073130056 0.097742096
000300 ac b9 0d 3e 78 60 a1 3c e9 a7 11 3d 9b 35 72 3b
       0.1384036 0.01969932 0.035560522 0.003695822
000310 92 a0 9e 39 80 46 3c bd 4b 0f cf bc 0a 7b c7 bd
       0.00030255743 -0.04596567 -0.025275847 -0.09740265
000320 4f 06 11 be c5 75 70 bd 3b 38 e7 bd 66 57 f1 3c
       -0.14162563 -0.058706064 -0.11290022 0.02946062
000330 97 8b 1b 3d 9b a7 1d 3d da ee 56 bd b3 92 c0 bd
       0.03797492 0.03848992 -0.05247388 -0.09402981
000340 ab 7e a1 bc 35 a3 d0 bd a1 55 c9 3d 7f 49 ac 3d
       -0.01971372 -0.10187379 0.098307855 0.08412456
000350 26 1a 04 3d f1 1e b1 bc ff 18 22 bd c5 dd be bd
       0.0322515 -0.0216212 -0.03957462 -0.09319643
000360 d6 c4 c4 bb a4 14 8d 3d fb 48 0d 3d 26 60 b3 3b
       -0.00600491 0.068887025 0.034493428 0.0054741083
000370 5a 7a 5c 3d 8b ca 6c bd e1 59 56 bb 19 41 53 bd
       0.05382762 -0.057810348 -0.003270738 -0.051575754
000380 b0 54 d4 bb 1c 8c ed 3d c6 2a b2 3d 0e cd 8c 3d
       -0.006479822 0.11598989 0.08699565 0.068750486
000390 bc b3 c5 bc 31 fa ac bd 1a ab 0c bb 12 60 90 bc
       -0.024133556 -0.08446158 -0.002146429 -0.017623935
0003a0 3c f0 ae 3d 0e fc e3 3d 3a 42 96 3c b5 68 68 bd
       0.08541915 0.1113206 0.018342126 -0.05674048
0003b0 ad f9 19 3d 78 b8 f6 bd d4 5d 62 bc 12 57 25 bd
       0.037591625 -0.12046903 -0.013816316 -0.04036624
0003c0 e4 b6 42 3d 33 5e 94 3d cf 93 8e bd c5 4b bf bd
       0.0475377 0.072445296 -0.06961786 -0.09340624
0003d0 83 24 07 bc 87 11 0e 3e 17 26 ea 3d 77 91 db bc
       -0.008248451 0.13873874 0.11433046 -0.026802761
0003e0 ab 87 a3 3d 02 8c 04 bd f6 bf 50 bd 19 29 f5 bc
       0.07984861 -0.032360084 -0.05096432 -0.029926823
0003f0 73 76 12 3e 32 0b 19 3e 6e 93 4b 3d f3 19 6b bc
       0.14302997 0.14945677 0.049701147 -0.0143494485

conv1.bias f4 [32]
000000 2e 2c 73 bd c8 2d 7e 3d bb 36 20 3d 89 6b e8 bd
       -0.059368305 0.06205538 0.039114695 -0.11348636
000010 b6 1a 0f 3e 53 cf dc 3c 07 33 cd b9 53 37 7d 3c
       0.13975033 0.026954329 -0.00039138665 0.015455085
000020 2e c6 39 be d3 18 28 bd a1 e6 1d be 7b 12 b7 3d
       -0.18142006 -0.0410393 -0.15420009 0.08939072
000030 f5 2f c7 bd 71 0f bd 3c a9 5e 36 3d ed f6 32 3e
       -0.09725944 0.023078652 0.04452387 0.17477007
000040 9c 97 82 3c 24 5c bb bc c2 c7 2a 3e 29 c7 66 3e
       0.015941434 -0.022871085 0.16677764 0.22536911
000050 12 3a 52 bd de 28 3d 3e 5c a7 d2 3a c2 25 bc bc
       -0.05132491 0.18472621 0.0016071605 -0.022967223
000060 c2 d2 68 3e ca 5a 2c bd 82 78 5f be 60 26 13 3e
       0.22736648 -0.04207877 -0.21823314 0.14370108
000070 01 df 57 3e 0e 90 1d 3c 22 65 7c 3d 5b 13 f4 bc
       0.21081163 0.009616865 0.061619885 -0.029794386

conv2.weight f4 [64, 32, 3, 3]
000000 5c 3e a6 bd 49 21 f1 bd c2 f4 32 be 0d ae 18 be
       -0.08117363 -0.11773927 -0.1747618 -0.14910145
000010 21 b3 f9 bd d9 18 32 be c7 04 22 be ec 67 2b be
       -0.12192369 -0.17392291 -0.15822135 -0.16738862
000020 bf 34 1e be 1c a3 8f 3c 10 f8 29 3d 21 cb 98 bc
       -0.15449809 0.017533831 0.041496336 -0.018651547
000030 dc 94 2c bd 02 8d 83 bc 95 66 1d bc 1b 37 f4 bc
       -0.04213415 -0.016058449 -0.009606977 -0.029811433
000040 9e a7 ee bb 4a f3 87 3d 45 a0 89 3c 3b 5c 9b 3d
       -0.007283165 0.066382006 0.016800055 0.07585951
000050 43 27 86 3c 61 6c d2 3c 32 30 85 3d bc 92 65 3d
       0.016376143 0.025686445 0.06503333 0.05604814
000060 f9 00 d9 3d 8e c3 d0 3b b6 14 ab 3a cf 05 14 bd
       0.10595889 0.006370968 0.0013052437 -0.036138352
000070 8d 0c 61 bc 12 e8 e7 3c 4c d6 40 3d 07 3f 7a 3c
       -0.0137359025 0.028308902 0.04707937 0.015273816
000080 3a 26 8a 3d 10 25 b8 3c 9f 7b 83 3c b1 50 52 3d
       0.067455724 0.02247861 0.016050158 0.051346485
000090 35 ac c5 3d 97 fa 9c 3d e5 e8 08 3d 1b 63 43 3c
       0.096519865 0.07664984 0.03342523 0.011925484
0000a0 6b 87 c0 3d 81 ae b1 3d 8a 1d 7a 3d 37 fe 29 bc
       0.09400829 0.08675862 0.061063327 -0.010375551
0000b0 78 ef f3 bc 87 91 5a bd 1d e8 c0 bb 51 87 02 3d
       -0.029777274 -0.053361442 -0.005887045 0.03186733
0000c0 a1 0a 54 bd e8 8e bb bd e1 ed 8d bd 6c c7 d0 bc
       -0.05176795 -0.091581166 -0.069301374 -0.025485717
0000d0 0a 30 a9 bc bf 05 84 bd 9b 86 34 bd a3 61 a8 bd
       -0.02065279 -0.064464085 -0.044073682 -0.08221748
0000e0 0a 75 7e bd df c5 73 bd 96 51 9b 3c 59 7b e6 bc
       -0.062123336 -0.059514876 0.018959802 -0.028134989
0000f0 77 30 f5 bc 1c c0 a2 bb c3 13 ec 3c 9c 74 f2 bc
       -0.029930336 -0.004966749 0.028818017 -0.02959662
000100 c7 08 be 3b c7 ea 41 3d c0 8f 98 bc 38 1e c7 3c
       0.005799386 0.04734304 -0.018623233 0.024306402
000110 73 0c 5b bc cd 60 2f bd 08 c2 1c bd ef 27 66 3d
       -0.013369667 -0.042816926 -0.03827098 0.056190427
000120 62 6a ac bd ca b5 87 bd eb 57 5c bd 0e d3 08 bd
       -0.084187284 -0.066264704 -0.053794783 -0.033404402
000130 23 1b b5 bd 15 95 ac bd 55 0f 93 bd 89 47 b2 bd
       -0.088430665 -0.08426873 -0.07180659 -0.087050505
000140 fc d4 3d 39 c4 41 c6 3c b3 60 83 3a b5 b4 ea bd
       0.00018103787 0.024201281 0.0010023325 -0.114602484
000150 3e 3e 9a bc c1 34 a1 bd ac 5b f8 bb 69 d4 16 3d
       -0.018828508 -0.0787139 -0.0075792875 0.036823664
000160 e1 9b 8d bd 7a 9b ae bd 96 8f 1a 3d 3d d0 bc bb
       -0.06914497 -0.085257486 0.03773459 -0.0057621286
000170 5e c6 7c 3d 7d cb 86 bd 7d 40 32 bd ba f3 1c 3c
       0.061712615 -0.06581781 -0.043518532 0.009579593
000180 3e 12 97 bd bc 3b cd 3c fa 4d 99 bc 17 6f f4 3c
       -0.07376526 0.025052898 -0.01871394 0.029838128
000190 17 06 3d bc c9 4d d1 3d f8 50 24 3d df d0 f0 bb
       -0.011537096 0.102199145 0.04011628 -0.007349118
0001a0 b3 47 ae 3c a0 ca f2 3c cb 5a 0b bc 60 7d 7d 3d
       0.021274423 0.029637635 -0.008505533 0.061887145
0001b0 27 5c 0b 3d 0a dc 79 3d 58 fe 11 bc d4 7d 98 3d
       0.03402343 0.06100086 -0.008910738 0.07445875
0001c0 ac ef 20 bb 6f a1 8e bd 5f be 50 3d 92 61 80 3c
       -0.0024556918 -0.06964385 0.050962802 0.015671525
0001d0 78 2f 77 bd d9 de b5 bc dd 84 b3 3c ea 77 42 bd
       -0.060348004 -0.022200989 0.02191394 -0.04747764
0001e0 5f 34 0f bd 88 aa 28 bc 3c f6 49 bc 19 b7 18 bd
       -0.034962054 -0.010294564 -0.012326773 -0.03728399
0001f0 8c f4 aa 3c c5 45 a2 3c 80 60 8b bd 8c eb df bc
       0.020868562 0.01980866 -0.06805515 -0.027333997
000200 f7 5a 2f bc e5 a4 20 bd d4 22 00 bc a1 c8 91 bd
       -0.01070284 -0.039219756 -0.007820804 -0.07118345
000210 cb 1c f2 bc b9 53 d5 3c 0d 80 89 bc dc 9b 72 3c
       -0.029554745 0.026040899 -0.016784692 0.014807668
000220 19 70 78 3c 51 c0 00 3d 15 c8 65 3c fe eb 90 3b
       0.015163445 0.031433407 0.014024754 0.0044226637
000230 a1 a2 33 3b d9 d1 93 3c 28 ba c0 3d 68 87 bf 3d
       0.0027410167 0.0180444 0.094105065 0.093519986
000240 9a 7e 5a 3c c8 43 86 bb 20 ab 52 bc db 4c 97 3b
       0.013335848 -0.0040974356 -0.012858182 0.004617316
000250 87 32 97 3c a5 52 fc 3c 1f 12 86 3d 09 ff a2 3d
       0.01845671 0.030801127 0.06546425 0.079588
000260 5e d5 9a 3d 60 47 3a bd ec 97 34 bc e3 ec 00 bc
       0.07560228 -0.045478225 -0.011022549 -0.007868978
000270 76 11 e5 3c 35 9a 33 bd da a5 84 bd 1f fa 93 ba
       0.027962428 -0.043848235 -0.06476946 -0.0011289752
000280 9f 46 3b 3c 69 33 3d bd 48 ba 18 3d 52 be e9 ba
       0.011430412 -0.046191607 0.037287027 -0.0017833209
000290 d1 5b db bb 73 f6 dc 3d e6 1e db 3d 8d 4a b3 3d
       -0.006694295 0.10789194 0.10699253 0.08754454
0002a0 aa d8 14 3e 6f 60 ae 3d be 1c d5 3d a2 99 f9 3d
       0.14535776 0.08514487 0.10405873 0.12187506
0002b0 64 23 14 3e 80 58 e9 3d fb 59 b8 3c a2 21 bc 3d
       0.14466625 0.11393833 0.022503844 0.091861024
0002c0 43 1f e2 3d 4f b0 82 3d ad 75 0e 3a 0d 69 aa 3c
       0.11041119 0.063812844 0.0005434405 0.020802045
0002d0 fe 84 33 bd e1 42 d0 bd bd ec 08 be 83 ab e4 3c
       -0.043828003 -0.10169006 -0.13371558 0.027913814
0002e0 ad df b2 bd 05 2f fb bd 3b 20 d3 bc 84 e0 73 bd
       -0.08734069 -0.12264828 -0.025772205 -0.059540287
0002f0 7f 44 5c bd 15 35 25 bc c2 f5 ed 3c 4a 86 6f 3d
       -0.05377626 -0.0100834565 0.02904785 0.058477677
000300 a1 d8 03 3d 50 5c b5 ba 1a 0e fd 3c df 7c 1a bd
       0.032189015 -0.0013836715 0.030890513 -0.037716743
000310 fa 28 0f bc 89 f2 54 3d e0 a5 12 3c 72 c2 fa bc
       -0.008737797 0.051989112 0.0089506805 -0.030610297
000320 89 68 4e bd 24 8f 1e 3d da 63 55 bd eb 35 ce bb
       -0.05039266 0.03871073 -0.05209718 -0.0062930486
000330 ac dc 86 bb f8 76 b8 3c 1d 0e fa 3c 99 84 e0 bd
       -0.0041156616 0.022517666 0.030524308 -0.10962791
000340 49 2e a9 bd 74 6e cb bd 1b 06 c2 bd 90 b0 76 bd
       -0.08260781 -0.09933177 -0.09473821 -0.060226977
000350 91 73 d1 bd c8 35 bd bc f1 49 3b bd ee be 6f bc
       -0.10227121 -0.023096934 -0.045724813 -0.0146329235
000360 94 d6 0b 3c b6 6e 0b bd 91 54 4f 3d 8f 01 e9 bb
       0.008535046 -0.03404113 0.05061776 -0.0071107815
000370 1d 66 03 bd 40 dd 11 bd 1e bd 11 3d 6a a5 9d bd
       -0.032079805 -0.03561139 0.035580747 -0.07697566
000380 50 69 9f bc f1 88 0a 3d 1c 49 dd bb 39 70 30 3d
       -0.019459397 0.033822004 -0.0067531 0.043075774
000390 06 89 81 3d d4 e2 80 3d e3 c7 0d 3d 0b 5f 47 3d
       0.06324963 0.06293264 0.034614455 0.048674624
0003a0 b9 02 39 3d b5 8d c8 3b 15 0b 5c be 07 04 35 be
       0.045168612 0.0061204084 -0.21488602 -0.17677318
0003b0 20 39 28 be ea 9d ea bd bf 55 0f be 0f 49 0f be
       -0.16428041 -0.11455901 -0.13997553 -0.13992713
0003c0 fd d9 f8 bd 64 1e 61 bd 1b 3b 42 bd 23 91 cc 3c
       -0.12150953 -0.054960623 -0.04741965 0.02497155
0003d0 86 86 dc bc 2a 8e dc bc ee 83 a9 bd 03 e0 a3 bd
       -0.026919615 -0.026923258 -0.08277117 -0.08001711
0003e0 00 95 2d bd a2 9f 5f bd 64 04 c1 3c 72 fe 14 bd
       -0.042378426 -0.054595597 0.023561664 -0.03637547
0003f0 57 c8 67 3d d4 86 d8 3d 7d 6c f3 3d 6f 29 94 3d
       0.056587543 0.105725914 0.11885927 0.07234465

conv2.bias f4 [64]
000000 90 9a 62 3e b5 99 0d 3e 4f 6d ff bd c3 a7 4e 3d
       0.22129273 0.13828166 -0.12472021 0.05045296
000010 b4 e6 c6 bb 7a 10 4c be 6d 83 0e 39 db 76 f2 bc
       -0.0060699824 -0.1992816 0.00013591135 -0.02959769
000020 b3 50 e1 bd 8c d6 09 bd e5 87 81 bd f5 9c aa bc
       -0.1100172 -0.033651873 -0.06324748 -0.020826796
000030 e7 6f 28 bd 8f c8 b5 bb 13 39 d9 ba 97 4c bf bd
       -0.041122343 -0.00554759 -0.0016572796 -0.0934078
000040 1f 55 e6 bc 4e 73 06 bd b7 f0 8b 3d 7d 4d a4 3d
       -0.02811676 -0.032824807 0.06833022 0.08022592
000050 73 93 23 3d b6 6a 3b b9 c6 d1 8a bc 21 ed 46 bc
       0.03993554 -0.00017873463 -0.01694573 -0.012141497
000060 58 d5 bd bd b0 be ad 3d 79 c1 d5 3d ef 08 70 bb
       -0.09269208 0.084836364 0.104372926 -0.0036626419
000070 65 42 80 3d 8c a0 83 bb 8b 24 12 b9 c3 9d 45 3d
       0.06262664 -0.0040169414 -0.00013937258 0.048246156
000080 b6 a0 b9 3d 83 f0 1f bc b8 87 9d bd 17 e2 f2 3d
       0.09063856 -0.009761932 -0.07691902 0.118595295
000090 3e 15 e2 b9 d6 e1 14 3e 52 ce 23 3d 0e e2 6a bd
       -0.00043121906 0.14539275 0.039991684 -0.05734449
0000a0 b1 96 cc b9 e5 74 a1 bd 47 d9 20 ba df c8 ba bc
       -0.00039022186 -0.07883624 -0.00061358925 -0.02280086
0000b0 49 38 9f 3c 88 03 98 3c ca 09 8e bc 63 d6 0f 3e
       0.019436019 0.018556371 -0.017338652 0.14046626
0000c0 35 fe 3f bc 3e ee f3 3c b8 e1 0f 3e fd d4 8e 3d
       -0.0117183225 0.029776689 0.14050949 0.06974218
0000d0 7b 66 a7 bd 28 36 89 bd 50 4a e2 bb f4 81 f4 ba
       -0.081738435 -0.066997826 -0.0069058314 -0.0018654452
0000e0 8c 02 2b 3d 90 09 6a 3c 8f 10 f1 3c 9f 2f bc bd
       0.041750476 0.014284506 0.029426841 -0.091887705
0000f0 94 16 79 bd 0d 4d 35 bd 4a 86 4e 3d ce 20 e2 3c
       -0.060812548 -0.044262934 0.050421037 0.027603533

conv3.weight f4 [128, 64, 3, 3]
000000 84 27 b5 3d 75 42 02 3e 2f 7e e8 3d 43 ea 6b 3d
       0.08845428 0.12720664 0.113521926 0.057596456
000010 e6 f6 78 3d 75 89 01 3e dc 9a cd 3d f4 3d af 3d
       0.060782336 0.12650092 0.10039303 0.085567385
000020 29 0d ce 3d 56 91 76 3c ca 49 b7 3c a0 6a 89 3d
       0.10061104 0.015049299 0.022374053 0.0670979
000030 95 5e 36 3d a8 2e 71 3d 55 da 7a 3d 79 87 d3 3c
       0.044523794 0.058882385 0.061243374 0.025821434
000040 bd 4c 48 3d 92 e5 84 3c 5e 5e dc 3c 9a 78 86 3d
       0.04890131 0.016222749 0.026900467 0.06565972
000050 2b 85 33 3d 00 79 c0 3c e2 a3 2d 3d f2 eb 36 3d
       0.04382817 0.023495197 0.04239262 0.04465861
000060 2a 50 c3 b9 33 5e 95 3c ad cf 05 3d 7e cc e0 3b
       -0.00037253025 0.018233394 0.03266876 0.006860315
000070 95 1e 83 3b 1a 99 3c 3b 08 bc 1c bd 06 28 8d bb
       0.0040014484 0.002877778 -0.038265258 -0.0043077497
000080 18 ec 4c bc d1 d9 a7 bc e4 4f 8d 3b 03 5e 2f 3c
       -0.012507461 -0.020489605 0.004312502 0.0107035665
000090 f8 77 36 ba 1c 64 e2 b9 e4 0d 61 ba 48 1d 19 ba
       -0.0006960626 -0.00043180666 -0.0008585139 -0.000584085
0000a0 d2 db d6 b9 5a 12 79 ba 6d f2 ce b9 47 4f 09 ba
       -0.0004098104 -0.0009501331 -0.00039472003 -0.00052379485
0000b0 c2 16 48 ba e1 ea a3 bd bf 3b 73 bd 3e 1d e3 bc
       -0.0007632786 -0.08003784 -0.05938315 -0.027723905
0000c0 ba 46 c1 bc eb 38 1d bc e2 d3 21 bd 2d 0b 58 bc
       -0.023593295 -0.00959609 -0.039508708 -0.013186258
0000d0 d5 8b 54 bd 9e b9 32 bd 26 54 7b bd c3 ee 83 bd
       -0.051891167 -0.04363405 -0.061359547 -0.064420246
0000e0 8e 9c e0 ba 78 42 f5 bc ab b2 a0 bc a0 e7 9f bb
       -0.0017136501 -0.029938921 -0.019616446 -0.004879907
0000f0 be 6d 6b bc 31 59 30 bb 5f 04 a1 3c 93 25 b5 38
       -0.014369426 -0.002690863 0.019655405 8.637751e-05
000100 be 9d bc bb 6b cd ac bc ed b4 f6 bc 7f db b2 bc
       -0.005756109 -0.021094045 -0.030115569 -0.02183318
000110 13 bf 9f bc 6a 11 3e 3c a2 cc d7 3b 9d a5 58 3c
       -0.019500291 0.0116008315 0.0065856734 0.013223079
000120 72 ad ad 3b a6 91 01 bd 16 13 fd bc 8d 8e 04 bd
       0.0053002173 -0.03163304 -0.03089289 -0.03236251
000130 66 d8 4a bd d6 a9 1f bd f3 b5 8d bd b5 20 8d bd
       -0.04952278 -0.038980328 -0.0691947 -0.06891004
000140 20 51 99 bd 14 f0 af 3c 54 8b e4 3a e4 70 b7 bb
       -0.074861765 0.021476783 0.0017436543 -0.0055981744
000150 e3 0b 0e 3c 72 c7 68 bb 3b 32 23 3b b0 af d0 bc
       0.008669826 -0.003551927 0.0024901766 -0.0254744
000160 94 0c 01 3c de fd d4 ba 79 be a0 bb 16 19 1c 3d
       0.007876534 -0.0016249975 -0.0049055186 0.03810986
000170 d6 38 61 3c 84 14 6a 36 3d 80 8d bc bf 70 56 b9
       0.013746461 3.4880659e-06 -0.017273063 -0.00020450632
000180 24 0b a1 bc 84 9c 14 bd 1f 0c fb bc 66 70 b9 bc
       -0.019658633 -0.036282077 -0.030645428 -0.022636604
000190 10 a0 e9 bc c4 e9 15 bd d6 e4 9c bc 33 f5 ba bc
       -0.028518707 -0.03659989 -0.019152086 -0.022821998
0001a0 cd 17 31 bd 44 f4 47 bd ce dd 34 bd 50 0a 6e bd
       -0.04323559 -0.048816934 -0.044156842 -0.058115304
0001b0 82 f1 ca bb d4 24 be bc 2c 72 97 bc 41 27 ce 3c
       -0.0061933408 -0.02321092 -0.018487059 0.025165202
0001c0 bf a9 ae bc 8e 09 b9 b9 09 ba a4 bc e5 1f 0b bd
       -0.021321176 -0.00035293069 -0.02010824 -0.033965964
0001d0 00 8f 2e 3c 69 e4 6a bd 43 b4 fd bc 7b d2 df bc
       0.010654211 -0.057346735 -0.030969745 -0.027322045
0001e0 e0 c8 bd bc ec 64 95 bc 40 e8 6c bc 32 62 72 bd
       -0.023167074 -0.0182366 -0.01445967 -0.059175678
0001f0 14 b5 6f bd fe 33 7b bd 35 4b 08 3d 4a e1 9a bc
       -0.0585223 -0.06132888 0.033274848 -0.018906254
000200 04 e6 21 bc ec 99 8d 3c 9d 2a b2 bc af 16 61 3c
       -0.0098815 0.01728531 -0.021748835 0.013738318
000210 34 25 ad bc d5 f0 43 3c 41 0c 82 bc d4 b5 56 3d
       -0.021135904 0.011959274 -0.015874984 0.0524195
000220 a5 fd 01 3d f8 af 5d 3d 04 71 1c 3d 13 ca e3 b9
       0.031736035 0.054122895 0.038193718 -0.0004344737
000230 7e b4 71 3d f8 88 a8 3c c2 ec 23 3d 1a 9e d8 3c
       0.05901002 0.020573124 0.04002071 0.026442576
000240 03 09 a3 ba 98 c0 e1 bb 00 1e bf b8 c5 ce 62 bb
       -0.0012438599 -0.006889414 -9.113178e-05 -0.0034608108
000250 d1 9c f8 bb 9f 59 9e 3a 7c c3 c7 39 26 a2 e1 b8
       -0.0075870533 0.0012081153 0.00038101885 -0.000107590386
000260 6c 35 11 bc c8 93 54 3c ed a5 5f 3d 8f 30 25 3d
       -0.008862834 0.012974687 0.0546016 0.040329512
000270 e3 cf 55 3d c6 07 27 3d 4c 29 03 3d 90 67 22 3d
       0.05220021 0.040778898 0.032021806 0.039649546
000280 44 4e 17 3c e4 17 7b 3d d5 9a cd 3b 2b 06 bf ba
       0.009234969 0.06130208 0.006274561 -0.0014573982
000290 b3 8e 24 bb 03 ec 54 3c 52 44 63 3c 56 75 83 3c
       -0.002510947 0.012995723 0.013871269 0.016047161
0002a0 0c 7c 11 bc 6d 91 23 3d bc f5 54 3c 97 03 40 3d
       -0.008879673 0.03993361 0.012998041 0.046878424
0002b0 67 79 8d 3b 29 ef b5 3c 8d 15 3f 3d 24 8c 95 3a
       0.004317451 0.022208767 0.04665141 0.0011409563
0002c0 2d 4b 89 3b 3e 1e 25 bc 02 32 ac 3c 71 7d 26 3d
       0.00418987 -0.010078011 0.02101994 0.040646974
0002d0 13 19 be 3c ba a0 96 bc 50 45 e0 3b f8 63 79 bc
       0.023205316 -0.018387187 0.0068442 -0.015221588
0002e0 fc 1e d5 3c ea ee bf bb 9e 82 1d bd 95 88 16 3c
       0.026015751 -0.005857338 -0.038454644 0.009187837
0002f0 07 89 18 bb 0b ef 25 38 3f 30 a5 b7 6d d4 cc 38
       -0.0023275034 3.956169e-05 -1.9692e-05 9.7670454e-05
000300 ec a5 54 36 1b b0 00 b7 c8 2b b3 38 89 bc 98 38
       3.168704e-06 -7.670397e-06 8.54354e-05 7.283042e-05
000310 48 17 89 37 4d a9 1b 37 27 d7 3a bd a1 90 27 bd
       1.6342514e-05 9.278138e-06 -0.04561534 -0.040909413
000320 78 84 bc bb bc 1e 2b bd b2 ad 20 3c c4 84 01 bd
       -0.005753096 -0.041777357 0.009807037 -0.031620756
000330 43 68 b8 3b 91 cc 25 bc 6b 89 42 bd af 2b 70 bb
       0.0056276633 -0.010119573 -0.047494333 -0.0036647131
000340 2f 34 47 ba ce b6 6d 3a 7a 8e 7d 39 ac f9 89 bb
       -0.00075990235 0.00090680725 0.00024181037 -0.0042106714
000350 94 15 8e bb 3f 37 cf 39 d0 6c a3 bb 4d 82 4c 3a
       -0.0043360684 0.00039523278 -0.0049873367 0.0007801399
000360 d5 d1 73 bd dc 85 7a bd 5c 92 e1 bc 6e b4 ec bc
       -0.059526283 -0.061162814 -0.02753561 -0.02889463
000370 1b 02 2b bd 7b c0 55 bc 29 dd 5b bd 97 d6 dd bc
       -0.041750055 -0.013046379 -0.05367771 -0.027079863
000380 84 c1 6d bc 15 27 88 3c be 5c 21 3d 0d 9b 26 3d
       -0.01451147 0.016620198 0.039395086 0.04067521
000390 81 02 fc 3c 59 20 91 3c 3f 37 98 3c 9b 37 05 bd
       0.030762913 0.01771562 0.01858103 -0.032523733
0003a0 a7 6c b6 3c fd 80 9d 3b 82 61 b5 bb da f9 bf bb
       0.022268606 0.0048066364 -0.0055353055 -0.005858642
0003b0 a9 74 c1 bb fd cb d0 3a 62 ce 6d bc 23 dd 21 bc
       -0.0059037996 0.0015929934 -0.0145145375 -0.009879383
0003c0 cc cf 8c bc 44 4d 97 bc a2 2e dd bb 4a 46 c5 3c
       -0.017188929 -0.01846946 -0.006749944 0.024081368
0003d0 a5 8b 54 bc 73 26 25 bd a2 50 c5 3b 06 4d 1b bd
       -0.012972747 -0.04031987 0.006021575 -0.037915252
0003e0 cd 9a e5 3a 5d 5b 37 bb 73 ee 06 bd 9b 04 cd bc
       0.0017517448 -0.002797804 -0.032942247 -0.02502661
0003f0 29 31 26 bc 76 25 d0 bc 91 0a d7 bc d5 fe dd 3c
       -0.010143557 -0.025408488 -0.026250156 0.027099052

conv3.bias f4 [128]
000000 e1 15 ed 3d c8 25 d7 3b bc 4d 87 ba 5d 8f 80 3d
       0.11576439 0.006565783 -0.0010322849 0.062773444
000010 fc 72 02 3c 3d 6c 13 bd 4c 7b 9e 3c 58 e7 ac bd
       0.007961985 -0.035991896 0.019345902 -0.08442563
000020 9b 25 b2 bd 93 ba 0d bc ef db 14 bd 05 b2 31 3c
       -0.08698579 -0.00865044 -0.036342558 0.010845666
000030 ac 40 02 3c 89 d2 8a 3c a8 d0 4c 3d a5 24 2d 3c
       0.007949989 0.016946094 0.050003678 0.010567819
000040 c6 74 93 bb 0f e7 a4 3d 7b 70 7c 3b 63 e2 0c bb
       -0.0045000045 0.080518834 0.0038519192 -0.0021497242
000050 b6 17 5e 3a 82 7c d3 bd 65 ba 36 bd 0d f0 7f bb
       0.0008472161 -0.10326482 -0.044611353 -0.0039052994
000060 87 e1 05 bc 5b ca 6a bd c8 9b 52 be e3 9b 05 3d
       -0.008171446 -0.057321887 -0.20567238 0.03261937
000070 b6 81 86 3c c0 4d 4f 3d 3a 5a 53 bb 2b 58 2b bc
       0.016419273 0.050611258 -0.0032249824 -0.010458033
000080 fd c9 d1 b9 45 da 21 3d 9b 57 a1 bc 5a 00 32 be
       -0.0004001408 0.0395148 -0.019695094 -0.17382947
000090 4b b8 b1 3c 64 ee ae bc 11 22 59 bc e4 95 8b 3c
       0.021694323 -0.021353908 -0.013252751 0.017039247
0000a0 e6 42 5c bd 09 6b 06 3d d1 59 3d bc 79 74 b2 bc
       -0.053774737 0.03281692 -0.011557058 -0.021784054
0000b0 35 ff 0a 3d 6e 38 54 bd c2 47 96 bb 89 82 79 bc
       0.03393479 -0.051811628 -0.004586191 -0.015228876
0000c0 14 3c 8e 3b 4b 59 65 3d 44 c1 b7 bc cc 64 f3 bd
       0.004340658 0.05599336 -0.022431023 -0.1188446
0000d0 0b f5 80 3b 6a 4b 3c 3d 21 ae 91 3d 41 e0 bf 3d
       0.0039354614 0.045970358 0.071132906 0.09368945
0000e0 64 8d 3b 3b 60 99 33 bc 7d f4 4d bd 32 5c 3d bc
       0.002861821 -0.01096186 -0.05028199 -0.011557626
0000f0 59 41 10 bb 6a 49 b2 bb 1e c1 a3 bc 14 5a cd bd
       -0.0022011606 -0.0054408805 -0.019989546 -0.10026947
000100 4f 5d 8b 3b 55 0e 88 3d 0b 52 57 3d cc a1 f9 bc
       0.0042530666 0.066433586 0.052568477 -0.030472659
000110 da 52 af b8 06 43 35 bd 0e 46 0c 3d 30 3d 28 ba
       -8.3600826e-05 -0.04425337 0.034246497 -0.0006417809
000120 59 b4 57 ba 5b f4 9f bb 08 7d 78 3c 17 ca 94 bc
       -0.0008228473 -0.0048814244 0.0151665285 -0.01816277
000130 94 ca 13 bc 60 ed 9d 3d 1c a3 25 bd 7e 56 e4 3b
       -0.009020466 0.07711291 -0.040438756 0.0069683185
000140 65 d5 19 3e 34 bf 7a 3c 50 61 4d 3d c8 c1 89 bc
       0.1502281 0.015304375 0.050141633 -0.016816035
000150 75 5f 09 3d 8e 6d 76 3d 31 22 f0 3a 3e 11 09 3e
       0.0335383 0.060163073 0.0018320737 0.13385484
000160 30 79 a0 3d d4 76 6b bd 0d ab 1c bd 81 62 82 3c
       0.07835615 -0.05748637 -0.038249064 0.015916111
000170 48 77 cf 3a 86 1c 96 bc b9 9b 29 bb a7 00 a9 bb
       0.0015828395 -0.018324148 -0.0025880171 -0.0051575485
000180 d9 69 bf 3c 65 7f f3 3b b4 4b 62 bc 8d 67 6e bc
       0.023365902 0.007430958 -0.013811994 -0.014551056
000190 08 2f bb bc 47 55 df 3a 33 03 4f bc d9 72 34 3d
       -0.022849575 0.0017038964 -0.01263504 0.04405484
0001a0 57 18 bd bc 93 cb 98 bd 0e 0f 28 be 8e f2 34 bc
       -0.023082895 -0.07460704 -0.16411993 -0.011044158
0001b0 06 d7 a9 3c e9 93 6b 3d e2 5a 5d bd 4f 51 cb bd
       0.020732414 0.057514105 -0.05404175 -0.09927618
0001c0 b5 71 af 3a 38 e1 c1 3d aa 65 44 ba 77 a5 12 3c
       0.0013385328 0.09466785 -0.0007491956 0.008950583
0001d0 4a 9f ca 3d df 9d ad 3b 27 8b c5 3d 8f 3d 9b 3d
       0.09893663 0.0052983607 0.09645682 0.07580101
0001e0 a6 81 c5 3b 1e 3b 26 bc 98 a0 78 bb 96 45 d8 3d
       0.006027418 -0.010145931 -0.0037937518 0.105601475
0001f0 d7 67 f1 bb 83 cb 40 3d df 6e fe 3d f0 c6 c6 bc
       -0.007367115 0.047069084 0.12423491 -0.024264783

fc.weight f4 [18, 128]
000000 2c 5f 97 bd 54 31 26 3d 37 ed 28 ba 65 df 80 bd
       -0.073911995 0.040574387 -0.0006444039 -0.06292609
000010 10 75 bc 3d 0d 09 b3 3d 93 a6 d9 bc fb 6c 0b 3d
       0.092020154 0.08741961 -0.026568687 0.03403948
000020 0c d0 1f bd cd 5d 89 3d 8c 33 de bd 94 77 c4 bc
       -0.03901677 0.06707344 -0.108496755 -0.0239828
000030 92 b3 28 bc ff f6 a8 3d ff 4e ca 3d ea 80 88 3c
       -0.010296719 0.08250236 0.098783486 0.016663034
000040 d4 3a 07 3e 71 36 8c 3d 43 e1 66 3d be 72 17 3e
       0.13206035 0.068463214 0.05636717 0.14789864
000050 fd 6c b7 bd a5 4e b5 bd 00 1c 35 bd 73 e6 8b bd
       -0.08956335 -0.08852891 -0.044216156 -0.06831064
000060 ff a4 e9 3d 02 5c d2 bd de a7 d6 3d fd ae 8b 3d
       0.11408424 -0.10271455 0.10481237 0.06820486
000070 4e 08 f0 bc 48 ad 91 3d d0 a9 ec 3b 02 01 8f 3d
       -0.029300835 0.07113129 0.0072223917 0.06982614
000080 50 5d d2 31 33 38 a0 bc 19 f2 b6 3d 9a e5 b5 3d
       6.122413e-09 -0.019558048 0.08932895 0.08881684
000090 ae a0 bd 3d 76 61 d7 3d ae ab 06 bd c1 f7 97 bd
       0.09259163 0.10516636 -0.03287857 -0.07420302
0000a0 02 d4 6c bd 4f 06 46 bd 52 c0 d6 bc 27 9c da 3d
       -0.057819374 -0.04834586 -0.026214752 0.10674315
0000b0 c9 57 c6 bd 33 a0 7c 3d dd a7 86 bb d7 46 4a 3d
       -0.096847124 0.061676215 -0.0041093663 0.049383964
0000c0 dd 37 b2 bd a0 d2 b8 bd 89 b4 da bd be 6c 5a 3c
       -0.08702061 -0.090245485 -0.106789656 0.01333159
0000d0 cc 1f c4 bd 8f ee fa 3d 6d bd a1 bd ec e1 5b be
       -0.09576377 0.12252533 -0.07897458 -0.21472901
0000e0 ab 41 c1 bc 16 70 07 3d b0 30 be 3d 75 a2 42 bc
       -0.023590883 0.033065878 0.0928663 -0.011879553
0000f0 53 40 1d 3e 7d 6d 9d bc df 35 02 3e 78 d0 81 3c
       0.15356569 -0.019217247 0.12715863 0.015846476
000100 6b 6d 2e 3c 74 c8 be 3d 12 8c b9 bd 5e cb d4 bd
       0.010646204 0.09315577 -0.090599194 -0.10390352
000110 16 74 29 be b1 6b a7 bd c7 89 10 3e a7 60 81 bb
       -0.1654819 -0.081748374 0.14115058 -0.0039482894
000120 61 61 9c be d8 d8 b8 3c f6 e9 98 3d 12 5b f8 3d
       -0.30543044 0.022564337 0.074664995 0.12126745
000130 7e 08 8b bc fa 91 49 3c 22 8c d2 3d 24 1c 83 bd
       -0.016971823 0.01230287 0.102806345 -0.06401852
000140 27 e5 aa bd 52 d2 74 bd 8d 64 0c be d1 00 6a 3c
       -0.083444886 -0.05977089 -0.13710232 0.014282421
000150 a0 8c 99 3c e0 9a 1b be a6 8b 0a 3a 0c ba 25 bc
       0.018743813 -0.15195799 0.00052850915 -0.010115158
000160 9f b7 47 bc a4 1f 99 bc 76 4b 12 3e 05 91 b7 3c
       -0.012189775 -0.018691845 0.14286599 0.022408018
000170 09 e7 c4 bd 66 5b 47 3d 7b 35 15 3b 52 d5 9d 3d
       -0.09614379 0.04867115 0.0022767473 0.07706703
000180 c0 3c c0 3d bd be da 3b e7 11 c9 bd a2 e9 27 bc
       0.09386587 0.00667557 -0.09817868 -0.0102485735
000190 90 b5 75 3d c3 f9 52 3d e7 18 b3 bc 6b 09 dc 3c
       0.059987605 0.051507723 -0.02186246 0.02685996
0001a0 8a e8 2e 3b 80 94 1f bd cc 68 fc 3d aa 5c d3 bc
       0.0026688897 -0.03895998 0.12324676 -0.025801022
0001b0 95 97 0c bc 6a 35 eb 3d 4b 4f cc 3c 58 2b 95 bd
       -0.008581062 0.11484797 0.024940154 -0.07283658
0001c0 90 f5 0a be 98 b2 84 3d 87 9a 66 bd b3 d3 91 3d
       -0.13570237 0.064793766 -0.056299713 0.071204565
0001d0 94 44 4a bd 61 03 d7 3c 10 49 71 3d cd dd 8f bd
       -0.049381807 0.026246728 0.05890757 -0.07024727
0001e0 40 ef ed 3c cf 26 da bb fd 22 a7 3c 4e 90 ec 3d
       0.029044747 -0.0066574584 0.020402426 0.115509614
0001f0 86 ef cb bd c5 7c 47 3d 4a a5 d1 bd 3c 06 64 3d
       -0.09957795 0.048702974 -0.102366045 0.055670008
000200 d4 ac db 3d 26 bd ba bc 28 d8 74 3c b7 4c 13 3c
       0.10726324 -0.022795271 0.014944114 0.008990458
000210 09 16 00 3e 8d b6 78 bd 01 3f 1b 3d ad fa 82 bd
       0.12508406 -0.06072097 0.037901882 -0.06395469
000220 c0 1f 02 be 0d 6a a1 bd fd 94 73 bc 0d 92 bb 3d
       -0.12707424 -0.07881556 -0.014867065 0.09158716
000230 a1 39 13 bd cc 70 33 bd ad c4 df 3d e9 c2 60 bd
       -0.03594363 -0.043808743 0.10926185 -0.05487338
000240 00 0f c7 3d 5a bd d5 3d 4e 92 31 be 92 b5 4d bd
       0.09719658 0.104365066 -0.17340967 -0.050221987
000250 65 14 0e bd a0 61 08 be 98 b9 7f bc ae 77 00 bc
       -0.03468742 -0.13318491 -0.015608214 -0.007841034
000260 12 73 89 3d d9 3a fe bd e3 ec 21 be ce 49 fb 3d
       0.06711401 -0.12413568 -0.15813021 0.122699365
000270 4b 70 36 3d 42 9d 8e 3d 0e a1 41 3c 51 6a 4b 3d
       0.044540685 0.06963588 0.011818184 0.049661938
000280 a4 a8 08 39 b6 82 89 3d 30 da 03 be 62 40 f3 bd
       0.00013032794 0.06714384 -0.128762 -0.118775144
000290 f8 6b 56 3b 5a 51 ed bc 3e ba 54 3d ae 66 46 bc
       0.0032718163 -0.028969456 0.051935427 -0.012109442
0002a0 7a 63 1d bd 0a 6c 70 bd d9 20 4f bb e4 bc d2 bd
       -0.038424946 -0.058696784 -0.0031605272 -0.10289934
0002b0 93 cc 05 3d bc 09 3f 3c 03 3e c2 3b 80 62 a6 bd
       0.0326658 0.011660036 0.0059278025 -0.08124256
0002c0 7a 46 ba bd f0 e5 7f 3d a6 56 63 bd 80 e7 0f be
       -0.090954736 0.062475145 -0.055502556 -0.14053154
0002d0 03 be 7d bd e5 a7 80 39 0c 55 e3 3d f8 11 6d 3d
       -0.061948787 0.00024539154 0.11100206 0.057878464
0002e0 9f 24 9e 3b ef 78 a8 3c e6 b9 e2 bd 53 5f 11 3b
       0.004826143 0.020565478 -0.110706136 0.0022182062
0002f0 c2 fb f2 bc 82 cf 02 bb 11 29 83 bd 8a 20 30 be
       -0.029661063 -0.001996011 -0.06404317 -0.17199913
000300 c3 4b bd 3c a3 29 01 3e bb 30 ea 3c ed c2 04 bd
       0.023107415 0.1261354 0.02858769 -0.03241246
000310 16 22 73 bd c1 7d 37 bb 5d d5 da 3d f9 65 a5 ba
       -0.05935868 -0.002799854 0.10685227 -0.0012618891
000320 a3 a8 33 3e 63 eb 98 b9 7c 7c 34 3e ab 7b 04 be
       0.17544799 -0.00029167076 0.17625612 -0.129378
000330 1d 38 b1 bc eb ce a6 3d 0b f2 50 3d f4 22 a6 bd
       -0.021633202 0.08144935 0.05101208 -0.081121355
000340 5b 27 85 3d 4a 42 68 bd 48 56 02 be 46 2f 14 3c
       0.06501647 -0.056703843 -0.12728226 0.009044474
000350 b8 60 be 3d 18 a1 35 3d ec a6 f2 bb a3 af b1 3d
       0.092957914 0.044343084 -0.0074051525 0.08676078
000360 98 ad f2 3c 2d 00 d9 bb 20 b9 da 3d 6f 78 a1 3d
       0.029623792 -0.0066223354 0.10679841 0.07884299
000370 42 c0 19 3d 28 8b 61 bc 6d 96 f1 3a 1c 68 4b be
       0.037536867 -0.013766088 0.0018431671 -0.19863933
000380 01 7d 55 3d 38 8a 8f 3d ab d1 fd bd 41 97 a8 3b
       0.052121166 0.07008785 -0.123935066 0.005144984
000390 7b 59 66 3c 4c 20 c2 bb 22 1e c3 bd 42 9c c8 bc
       0.01405942 -0.0059242602 -0.09527232 -0.024488572
0003a0 88 b0 11 bd 0c 57 09 be 5f c3 c7 bd c6 6c 44 3b
       -0.035568744 -0.13412112 -0.09754061 0.002997206
0003b0 35 c3 d5 3d 77 09 f1 3d 67 2d 13 3c 9c 63 1e be
       0.104376234 0.117693834 0.008982993 -0.15467685
0003c0 39 bc aa bc 57 33 c9 3c 4e b6 0d be 77 7c 0f 3e
       -0.020841705 0.024560614 -0.13839075 0.14012323
0003d0 88 af c7 3d 08 25 57 bb c8 c2 e3 3d e6 09 f7 3c
       0.09750277 -0.0032828469 0.11121136 0.030156087
0003e0 c5 b9 90 3d ac 1d d3 3b bf 60 64 3c 28 25 ba 3d
       0.07066683 0.006442746 0.013939082 0.09089118
0003f0 0d 1d 5f bd 9f 1e 76 3d 29 82 2c 3d 04 bf f0 bc
       -0.054471064 0.060087796 0.042116318 -0.029387958

fc.bias f4 [18]
000000 bb b3 c8 3d 2b b8 c1 3d bb 56 06 3c 22 34 0a bd
       0.09799906 0.094589554 0.008199389 -0.033741124
000010 33 19 f7 3c 80 22 9e 3d b5 05 1f bc a6 7f 76 ba
       0.030163383 0.07721424 -0.0097059505 -0.00094031764
000020 ef b8 bc 3c 2d fb 13 be e4 86 ba bb 0f 87 72 bd
       0.023037402 -0.14451285 -0.0056923497 -0.059210833
000030 6a d9 17 bd f8 46 91 3d e2 e1 11 3d 38 71 26 bd
       -0.037072577 0.07093614 0.03561581 -0.040635318
000040 49 d7 84 bd 72 91 25 bd
       -0.06486375 -0.04042191
